training set shape:  (1080, 1, 2, 750) (1080,)
testing set shape:  (1080, 1, 2, 750) (1080,)
DeepConvNet(
  (featurelayer1): Sequential(
    (0): Conv2d(1, 25, kernel_size=(1, 5), stride=(1, 2))
    (1): Conv2d(25, 25, kernel_size=(2, 1), stride=(1, 1))
    (2): BatchNorm2d(25, eps=1e-05, momentum=0.1, affine=True, track_running_stats=True)
    (3): ELU(alpha=1.0)
    (4): MaxPool2d(kernel_size=1, stride=2, padding=0, dilation=1, ceil_mode=False)
    (5): Dropout(p=0.5, inplace=False)
  )
  (featurelayer2): Sequential(
    (0): Conv2d(25, 50, kernel_size=(1, 5), stride=(1, 2))
    (1): BatchNorm2d(50, eps=1e-05, momentum=0.1, affine=True, track_running_stats=True)
    (2): ELU(alpha=1.0)
    (3): MaxPool2d(kernel_size=(1, 2), stride=(1, 2), padding=0, dilation=1, ceil_mode=False)
    (4): Dropout(p=0.5, inplace=False)
  )
  (featurelayer3): Sequential(
    (0): Conv2d(50, 100, kernel_size=(1, 5), stride=(1, 1))
    (1): BatchNorm2d(100, eps=1e-05, momentum=0.1, affine=True, track_running_stats=True)
    (2): ELU(alpha=1.0)
    (3): MaxPool2d(kernel_size=(1, 2), stride=(1, 2), padding=0, dilation=1, ceil_mode=False)
    (4): Dropout(p=0.5, inplace=False)
  )
  (featurelayer4): Sequential(
    (0): Conv2d(100, 200, kernel_size=(1, 5), stride=(1, 1))
    (1): BatchNorm2d(200, eps=1e-05, momentum=0.1, affine=True, track_running_stats=True)
    (2): ELU(alpha=1.0)
    (3): MaxPool2d(kernel_size=(1, 2), stride=(1, 2), padding=0, dilation=1, ceil_mode=False)
    (4): Dropout(p=0.5, inplace=False)
  )
  (classify): Linear(in_features=1600, out_features=2, bias=True)
)
Entered
Train loss: 0.759954: 100%|███████████████████████████| 90/90 [00:01<00:00, 76.53it/s]
Train accuracy: 67.13% :  69%|███████████████▊       | 62/90 [00:00<00:00, 150.60it/s]
Using GPU Acceleration!!
Train accuracy: 66.94% : 100%|███████████████████████| 90/90 [00:00<00:00, 149.60it/s]
Test accuracy: 64.44% : 100%|████████████████████████| 90/90 [00:00<00:00, 142.84it/s]
…
